…
:{"base_uri":"https://localhost:8080/"},"executionInfo":{"elapsed":5562,"status":"ok","timestamp":1667455392553,"user":{"displayName":"jahnavi Pravaleeka","userId":"07910446580722231076"},"user_tz":-330},"id":"rHh5aD8DjGkI","outputId":"6c9b1d6b-9537-4e20-a6bd-1c01f46b9ac8"},"outputs":[{"output_type":"stream","name":"stdout","text":["Model: \"sequential\"\n","_________________________________________________________________\n"," Layer (type)                Output Shape              Param #   \n","=================================================================\n"," conv2d (Conv2D)             (None, 256, 256, 32)      2432      \n","                                                                 \n"," max_pooling2d (MaxPooling2D  (None, 85, 85, 32)       0         \n"," )                                                               \n","                                                                 \n"," conv2d_1 (Conv2D)           (None, 85, 85, 32)        9248      \n","                                                                 \n"," max_pooling2d_1 (MaxPooling  (None, 42, 42, 32)       0         \n"," 2D)                                                             \n","                                                                 \n"," conv2d_2 (Conv2D)           (None, 42, 42, 64)        18496     \n","                                                                 \n"," max_pooling2d_2 (MaxPooling  (None, 21, 21, 64)       0         \n"," 2D)                                                             \n","                                                                 \n"," flatten (Flatten)           (None, 28224)             0         \n","                                                                 \n"," dense (Dense)               (None, 512)               14451200  \n","                                                                 \n"," dropout (Dropout)           (None, 512)               0         \n","                                                                 \n"," dense_1 (Dense)             (None, 128)               65664     \n","                                                                 \n"," dense_2 (Dense)             (None, 4)                 516       \n","                                                                 \n","=================================================================\n","Total params: 14,547,556\n","Trainable params: 14,547,556\n","Non-trainable params: 0\n","_________________________________________________________________\n"]}],"source":["model.summary()"]},{"cell_type":"code","execution_count":27,"metadata":{"ex
…
